…
        model.add(Dropout(0.2))
        model.add(Dense(num_classes, activation='softmax'))
    
        model.summary()

Which yields:

    INFO:tensorflow:Using MirroredStrategy with devices ('/job:localhost/replica:0/task:0/device:GPU:0', '/job:localhost/replica:0/task:0/device:GPU:1')
    Number of devices: 2
    60000 train samples
    10000 test samples
    Model: ""sequential""
    _________________________________________________________________
    Layer (type)                 Output Shape              Param #   
    =================================================================
    dense (Dense)                (None, 512)               401920    
    _________________________________________________________________
    dropout (Dropout)            (None, 512)               0         
    _________________________________________________________________
    dense_1 (Dense)              (None, 512)               262656    
    _________________________________________________________________
    dropout_1 (Dropout)          (None, 512)               0         
    _________________________________________________________________
    dense_2 (Dense)              (None, 10)                5130      
    =================================================================
    Total params: 669,706
    Trainable params: 669,706
    Non-trainable params: 0

And then:

    model.compile(loss='categorical_crossentropy',
                  optimizer=RMSprop(),
                  metrics=['accuracy'])
    history = model.fit(x_train, y_train,
                        batch_size=batch_size,
                        epochs=epochs,
…
it61cl,[Semantic Segmentation]How do I match up my loss function and my output/labels to agree with one another?,"I'm new to semantic segmentation and am really struggling to wrap my head around how to construct my model so that the logits and labels are the same. And then so that the loss function is the correct loss function.

I'm using Keras 

    Layer (type)                 Output Shape              Param #   
    =================================================================
    input_6 (InputLayer)         [(None, 256, 256, 3)]     0         
    _________________________________________________________________
    block1_conv1 (Conv2D)        (None, 256, 256, 64)      1792      
    _________________________________________________________________
    block1_conv2 (Conv2D)        (None, 256, 256, 64)      36928     
    _________________________________________________________________
    max_pooling2d_20 (MaxPooling (None, 128, 128, 64)      0         
    ..........................................................................................................
    up_sampling2d_11 (UpSampling (None, 256, 256, 512)     0         
    _________________________________________________________________
    block7_conv1 (Conv2D)        (None, 256, 256, 123)     566907    
    _________________________________________________________________
    softmax_4 (Softmax)          (None, 256, 256, 123)     0       


That's my current setup. RGB input and then 123 classes output.

My masks are also in RGB so that could be an issue because I think they should be one-hot, but the tutorials that I've been able to follow don't mention converting the masks or its over my head what they are saying. 

I'm using 'sparse categorical crossentropy' as I haven't been able to get any custom loss function to work. I get weird errors. 
…
 # Latent representation shape (4, 4, 8)
    # Decoder part
 Conv2D(8, (3, 3), activation='relu', padding='same'),
 UpSampling2D((2, 2)),
 Conv2D(8, (3, 3), activation='relu', padding='same'),
 UpSampling2D((2, 2)),
 Conv2D(16, (3, 3), activation='relu', padding='same'),
 UpSampling2D((2, 2)),
 Conv2D(1, (3, 3), activation='sigmoid', padding='same')
], name='ConvAutoencoder')
autoencoder.compile(optimizer='adadelta', loss='binary_crossentropy')

Summary:

Layer (type)                 Output Shape              Param #   

=================================================================

conv2d\_1 (Conv2D)            (None, 100, 510, 16)      160       

\_\_\_\_\_\_\_\_\_\_\_\_\_\_\_\_\_\_\_\_\_\_\_\_\_\_\_\_\_\_\_\_\_\_\_\_\_\_\_\_\_\_\_\_\_\_\_\_\_\_\_\_\_\_\_\_\_\_\_\_\_\_\_\_\_

max\_pooling2d\_1 (MaxPooling2 (None, 50, 255, 16)       0         

\_\_\_\_\_\_\_\_\_\_\_\_\_\_\_\_\_\_\_\_\_\_\_\_\_\_\_\_\_\_\_\_\_\_\_\_\_\_\_\_\_\_\_\_\_\_\_\_\_\_\_\_\_\_\_\_\_\_\_\_\_\_\_\_\_

conv2d\_2 (Conv2D)            (None, 50, 255, 8)        1160      

\_\_\_\_\_\_\_\_\_\_\_\_\_\_\_\_\_\_\_\_\_\_\_\_\_\_\_\_\_\_\_\_\_\_\_\_\_\_\_\_\_\_\_\_\_\_\_\_\_\_\_\_\_\_\_\_\_\_\_\_\_\_\_\_\_

max\_pooling2d\_2 (MaxPooling2 (None, 25, 128, 8)        0         

\_\_\_\_\_\_\_\_\_\_\_\_\_\_\_\_\_\_\_\_\_\_\_\_\_\_\_\_\_\_\_\_\_\_\_\_\_\_\_\_\_\_\_\_\_\_\_\_\_\_\_\_\_\_\_\_\_\_\_\_\_\_\_\_\_

conv2d\_3 (Conv2D)            (None, 25, 128, 8)        584       

\_\_\_\_\_\_\_\_\_\_\_\_\_\_\_\_\_\_\_\_\_\_\_\_\_\_\_\_\_\_\_\_\_\_\_\_\_\_\_\_\_\_\_\_\_\_\_\_\_\_\_\_\_\_\_\_\_\_\_\_\_\_\_\_\_

max\_pooling2d\_3 (MaxPooling2 (None, 13, 64, 8)         0         

\_\_\_\_\_\_\_\_\_\_\_\_\_\_\_\_\_\_\_\_\_\_\_\_\_\_\_\_\_\_\_\_\_\_\_\_\_\_\_\_\_\_\_\_\_\_\_\_\_\_\_\_\_\_\_\_\_\_\_\_\_\_\_\_\_

conv2d\_4 (Conv2D)            (None, 13, 64, 8)         584       

\_\_\_\_\_\_\_\_\_\_\_\_\_\_\_\_\_\_\_\_\_\_\_\_\_\_\_\_\_\_\_\_\_\_\_\_\_\_\_\_\_\_\_\_\_\_\_\_\_\_\_\_\_\_\_\_\_\_\_\_\_\_\_\_\_

up\_sampling2d\_1 (UpSampling2 (None, 26, 128, 8)        0         

\_\_\_\_\_\_\_\_\_\_\_\_\_\_\_\_\_\_\_\_\_\_\_\_\_\_\_\_\_\_\_\_\_\_\_\_\_\_\_\_\_\_\_\_\_\_\_\_\_\_\_\_\_\_\_\_\_\_\_\_\_\_\_\_\_

conv2d\_5 (Conv2D)            (None, 26, 128, 8)        584       

\_\_\_\_\_\_\_\_\_\_\_\_\_\_\_\_\_\_\_\_\_\_\_\_\_\_\_\_\_\_\_\_\_\_\_\_\_\_\_\_\_\_\_\_\_\_\_\_\_\_\_\_\_\_\_\_\_\_\_\_\_\_\_\_\_

up\_sampling2d\_2 (UpSampling2 (None, 52, 256, 8)        0         

\_\_\_\_\_\_\_\_\_\_\_\_\_\_\_\_\_\_\_\_\_\_\_\_\_\_\_\_\_\_\_\_\_\_\_\_\_\_\_\_\_\_\_\_\_\_\_\_\_\_\_\_\_\_\_\_\_\_\_\_\_\_\_\_\_

conv2d\_6 (Conv2D)            (None, 50, 254, 16)       1168      

\_\_\_\_\_\_\_\_\_\_\_\_\_\_\_\_\_\_\_\_\_\_\_\_\_\_\_\_\_\_\_\_\_\_\_\_\_\_\_\_\_\_\_\_\_\_\_\_\_\_\_\_\_\_\_\_\_\_\_\_\_\_\_\_\_

up\_sampling2d\_3 (UpSampling2 (None, 100, 508, 16)      0         

\_\_\_\_\_\_\_\_\_\_\_\_\_\_\_\_\_\_\_\_\_\_\_\_\_\_\_\_\_\_\_\_\_\_\_\_\_\_\_\_\_\_\_\_\_\_\_\_\_\_\_\_\_\_\_\_\_\_\_\_\_\_\_\_\_

conv2d\_7 (Conv2D)            (None, 100, 508, 1)       145       

=================================================================

I think the problem start at conv2d\_3 where we have to divide 25 by two.   
Is there a way to make this work with every image size?

Thanks in advance.",0,tensorflow,2020-10-13
ihjsyb,Learning Tensorflow 2.0,I am a beginner to tensor flow and wanted to learn how to make cool projects so I wanted to know what is the best way to learn Tensor flow. I already know how to program in python I just need to learn  Tensorflow and I would like to know what would be the best way to start my journey.,0,tensorflow,2020-10-13
…
        for layer in winning_ticket_model.trainable_weights:
            vgg_19_np_wts.append(layer.numpy())
    
    
        len(vgg_19_np_wts)
        # 68
        
        # Initialize a model-
        model = vgg_nn()
        
        len(model.trainable_weights)
        # 68
        
        model.summary()
        '''
        Model: ""sequential_6""
        _________________________________________________________________
        Layer (type)                 Output Shape              Param #   
        =================================================================
        conv2d_96 (Conv2D)           (None, 32, 32, 64)        1792      
        _________________________________________________________________
        dropout_78 (Dropout)         (None, 32, 32, 64)        0         
        _________________________________________________________________
        conv2d_97 (Conv2D)           (None, 32, 32, 64)        36928     
        _________________________________________________________________
        batch_normalization_96 (Batc (None, 32, 32, 64)        256       
        _________________________________________________________________
        max_pooling2d_30 (MaxPooling (None, 16, 16, 64)        0         
        _________________________________________________________________
        conv2d_98 (Conv2D)           (None, 16, 16, 128)       73856     
        _________________________________________________________________
        batch_normalization_97 (Batc (None, 16, 16, 128)       512       
        _________________________________________________________________
        dropout_79 (Dropout)         (None, 16, 16, 128)       0         
        _________________________________________________________________
        conv2d_99 (Conv2D)           (None, 16, 16, 128)       147584    
        _________________________________________________________________
        batch_normalization_98 (Batc (None, 16, 16, 128)       512       
        _________________________________________________________________
        max_pooling2d_31 (MaxPooling (None, 8, 8, 128)         0         
        _________________________________________________________________
        conv2d_100 (Conv2D)          (None, 8, 8, 256)         295168    
        _________________________________________________________________
        batch_normalization_99 (Batc (None, 8, 8, 256)         1024      
        _________________________________________________________________
        dropout_80 (Dropout)         (None, 8, 8, 256)         0         
        _________________________________________________________________
        conv2d_101 (Conv2D)          (None, 8, 8, 256)         590080    
        _________________________________________________________________
        batch_normalization_100 (Bat (None, 8, 8, 256)         1024      
        _________________________________________________________________
        dropout_81 (Dropout)         (None, 8, 8, 256)         0         
        _________________________________________________________________
        conv2d_102 (Conv2D)          (None, 8, 8, 256)         590080    
        _________________________________________________________________
        batch_normalization_101 (Bat (None, 8, 8, 256)         1024      
        _________________________________________________________________
        dropout_82 (Dropout)         (None, 8, 8, 256)         0         
        _________________________________________________________________
        conv2d_103 (Conv2D)          (None, 8, 8, 256)         590080    
        _________________________________________________________________
        batch_normalization_102 (Bat (None, 8, 8, 256)         1024      
        _________________________________________________________________
        max_pooling2d_32 (MaxPooling (None, 4, 4, 256)         0         
        _________________________________________________________________
        conv2d_104 (Conv2D)          (None, 4, 4, 512)         1180160   
        _________________________________________________________________
        batch_normalization_103 (Bat (None, 4, 4, 512)         2048      
        _________________________________________________________________
        dropout_83 (Dropout)         (None, 4, 4, 512)         0         
        _________________________________________________________________
        conv2d_105 (Conv2D)          (None, 4, 4, 512)         2359808   
        _________________________________________________________________
        batch_normalization_104 (Bat (None, 4, 4, 512)         2048      
        _________________________________________________________________
        dropout_84 (Dropout)         (None, 4, 4, 512)         0         
        _________________________________________________________________
        conv2d_106 (Conv2D)          (None, 4, 4, 512)         2359808   
        _________________________________________________________________
        batch_normalization_105 (Bat (None, 4, 4, 512)         2048      
        _________________________________________________________________
        dropout_85 (Dropout)         (None, 4, 4, 512)         0         
        _________________________________________________________________
        conv2d_107 (Conv2D)          (None, 4, 4, 512)         2359808   
        _________________________________________________________________
        batch_normalization_106 (Bat (None, 4, 4, 512)         2048      
        _________________________________________________________________
        max_pooling2d_33 (MaxPooling (None, 2, 2, 512)         0         
        _________________________________________________________________
        conv2d_108 (Conv2D)          (None, 2, 2, 512)         2359808   
        _________________________________________________________________
        batch_normalization_107 (Bat (None, 2, 2, 512)         2048      
        _________________________________________________________________
        dropout_86 (Dropout)         (None, 2, 2, 512)         0         
        _________________________________________________________________
        conv2d_109 (Conv2D)          (None, 2, 2, 512)         2359808   
        _________________________________________________________________
        batch_normalization_108 (Bat (None, 2, 2, 512)         2048      
        _________________________________________________________________
        dropout_87 (Dropout)         (None, 2, 2, 512)         0         
        _________________________________________________________________
        conv2d_110 (Conv2D)          (None, 2, 2, 512)         2359808   
        _________________________________________________________________
        batch_normalization_109 (Bat (None, 2, 2, 512)         2048      
        _________________________________________________________________
        dropout_88 (Dropout)         (None, 2, 2, 512)         0         
        _________________________________________________________________
        conv2d_111 (Conv2D)          (None, 2, 2, 512)         2359808   
        _________________________________________________________________
        batch_normalization_110 (Bat (None, 2, 2, 512)         2048      
        _________________________________________________________________
        max_pooling2d_34 (MaxPooling (None, 1, 1, 512)         0         
        _________________________________________________________________
        dropout_89 (Dropout)         (None, 1, 1, 512)         0         
        _________________________________________________________________
        flatten_6 (Flatten)          (None, 512)               0         
        _________________________________________________________________
        dense_12 (Dense)             (None, 512)               262656    
        _________________________________________________________________
        batch_normalization_111 (Bat (None, 512)               2048      
        _________________________________________________________________
        dropout_90 (Dropout)         (None, 512)               0         
        _________________________________________________________________
        dense_13 (Dense)             (None, 10)                5130      
        =================================================================
        Total params: 20,315,978
        Trainable params: 20,304,074
        Non-trainable params: 11,904
        _________________________________________________________________
        '''

&amp;#x200B;

But, when I try to load the numpy array Python3 list as follows, it gives a ValueError-

&amp;#x200B;

        model.set_weights(vgg_19_np_wts)
…
